models/heart_attack_model.onnx (onnx, 13682 bytes, 6 tensors)

sequential_1_1/dense_5_1/Cast/ReadVariableOp:0 f4 [32, 2]
0.5563994 -0.5808109 -0.004399566 0.2161233 -0.24688353 0.07000058 0.62713087 -0.22765006
-0.46214136 -0.26057807 -0.09941139 0.20186153 -0.20373064 -0.44670337 -0.4739391 -0.22396001
-0.041701354 0.05006307 0.3191226 0.009545238 0.49790752 -0.5625756 -0.15226592 -0.017717823
-0.2896069 0.19688937 0.09005705 0.2288105 -0.30424488 -0.1594808 0.15014198 0.33173877
-0.2506512 -0.42417225 -0.13203226 0.07903216 0.027910816 -0.30357024 0.113825634 -0.043701824
-0.29684827 -0.039845638 -0.04081655 0.07519053 0.023841076 0.18098941 -0.04034437 -0.19233698
0.4089306 0.2583984 0.055388063 -0.21581453 -0.096598916 0.12295571 -0.30781662 -0.18160483
0.15497284 0.33197305 -0.07457567 0.061832566 -0.1932467 -0.0029284533 0.18976523 -0.25272015
00000000: 3170 0e3f 06b0 14bf 3c2a 90bb 6d4f 5d3e
00000010: 09cf 7cbe 775c 8f3d a68b 203f 191d 69be
00000020: cb9d ecbe 7d6a 85be 3398 cbbd cab4 4e3e
00000030: c49e 50be 4eb6 e4be 25a8 f2be c655 65be
00000040: 0acf 2abd ef0e 4d3d 0a64 a33e a163 1c3c
00000050: bced fe3e f404 10bf 99eb 1bbe f824 91bc
00000060: 5b47 94be 5e9d 493e d56f b83d 4d4d 6a3e
00000070: fcc5 9bbe ef4e 23be d2be 193e aad9 a93e
00000080: 5b55 80be 1b2d d9be 7733 07be 9ddb a13d
00000090: 39a5 e43c 8f6d 9bbe 6a1d e93d af00 33bd
000000a0: 7ffc 97be 2e35 23bd 412f 27bd 7efd 993d
000000b0: 5c4e c33c 4a55 393e 2340 25bd fcf3 44be
000000c0: 5a5f d13e cc4c 843e 98de 623d 7cfe 5cbe
000000d0: a7d5 c5bd 34d0 fb3d 249a 9dbe 9ef6 39be
000000e0: 33b1 1e3e 5ff8 a93e 21bb 98bd 2544 7d3d
000000f0: 77e2 45be 4beb 3fbb d151 423e 8964 81be

sequential_1_1/dense_5_1/BiasAdd/ReadVariableOp:0 f4 [2]
0.2416941 -0.24169412
00000000: a87e 773e aa7e 77be

sequential_1_1/dense_4_1/Cast/ReadVariableOp:0 f4 [64, 32]
-0.26871777 0.36653307 0.29332086 -0.7086751 0.3337591 -0.1724356 -0.19118851 -0.19378008
0.23266648 -0.18692812 -0.43173477 0.06287958 -0.34950474 -0.018757494 0.27473673 0.08425035
-0.30112165 -0.23131528 -0.3916219 -0.5082998 -0.1427241 0.19149534 -0.26813155 -0.14618766
-0.37242812 -0.07930556 0.02172448 0.17800407 0.30033222 0.20476034 0.20017318 -0.09994073
-0.5526937 -0.049010884 -0.100934416 -0.047718063 0.011178789 0.1791396 -0.55012673 -0.0032580611
-0.09046554 -0.0600809 -0.5887305 -0.11821689 -0.112913884 0.24214262 -0.06990093 -0.028768271
-0.035111655 -0.32412314 -0.50066906 0.026520679 -0.06488103 0.1886942 0.14724214 -0.118414365
-0.14940822 -0.12715107 0.05511144 0.4383026 0.17661439 0.2927957 -0.14223677 -0.31676614
-0.76038605 -0.3364623 0.3422974 -0.63865125 0.31460977 0.28212512 0.029799126 0.17108622
0.17026141 -0.016555946 -0.6759358 0.07445206 -0.057666905 0.1216129 -0.13447048 -0.2252633
-0.020781364 -0.23931882 -0.0006322462 -0.094979934 0.041498177 0.17694432 0.08540159 -0.056362867
-0.1593101 -0.07552734 0.10683572 0.21046448 0.023707155 -0.17398918 0.011492307 -0.0074925586
-0.3692447 0.25712973 -0.06992836 -0.5659206 0.23406279 0.04265155 0.04919744 -0.005007612
0.012302296 -0.25009608 -0.4461617 -0.067221686 0.12404437 0.05468663 0.122462004 -0.2164028
0.14279631 -0.10050694 -0.08706595 -0.105451085 0.09486209 0.10542315 0.24135807 -0.19811837
0.01313143 -0.3731484 0.14159575 0.37577304 0.051022213 0.11738097 -0.13761638 -0.042333886
0.008431221 0.009236863 -0.33241764 0.08869713 -0.08631527 -0.25599328 0.07053308 -0.21311578
-0.44961455 0.20578009 -0.017583042 -0.042800337 -0.28470013 -0.39116806 -0.17684522 0.08603449
0.1437194 -0.24489051 0.06816208 0.08480776 -0.50630796 -0.3064818 -0.114683695 0.066926815
0.17945752 -0.040482745 -0.015270983 -0.40978256 -0.5128065 -0.115332395 0.3254415 -0.03976072
-0.4221748 0.19779661 0.012659371 -0.33906415 0.08473076 -0.26189604 -0.13985322 0.3375264
-0.32410398 -0.08187108 -0.317067 0.19219835 -0.15634756 0.031225583 0.23065364 -0.25550222
-0.18157096 0.26815295 -0.48061842 -0.43285793 0.290405 0.27162385 -0.19004194 -0.18062815
-0.19856673 -0.039304163 -0.13787751 0.04489554 0.22158143 -0.06615518 0.09279625 -0.5533667
0.092650674 -0.20456459 0.0021208553 0.031150477 -0.15517846 0.12836474 -0.24829848 -0.006270173
0.046718992 -0.022736466 0.08974349 -0.08981924 -0.5265407 0.07998164 -0.16045776 -0.2255733
0.11239576 0.07755592 0.007553563 -0.00011347262 -0.0090248855 -0.09419853 -0.14284655 0.18849507
0.06888395 0.11260865 -0.27203184 -0.1410163 -0.08090325 -0.019540822 0.15242209 0.034155823
0.05239824 0.08666444 -0.21484448 0.060026728 -0.27400604 -0.04591307 0.033564843 -0.2451606
-0.2880369 -0.0043388787 0.10300072 -0.28278992 -0.038675357 -0.41961676 -0.38911065 -0.0709774
0.2665358 0.03544257 0.023336755 0.20531279 -0.2356139 -0.17230308 -0.34856886 -0.03521742
0.17376038 0.1281623 -0.12754051 -0.2307218 0.09627575 -0.39661825 -0.21798423 -0.013488267
00000000: 6095 89be 39aa bb3e 272e 963e bb6b 35bf
00000010: 79e2 aa3e f592 30be ecc6 43be 496e 46be
00000020: 1f40 6e3e 166a 3fbe 570c ddbe 02c7 803d
00000030: 49f2 b2be 51a9 99bc 4baa 8c3e 738b ac3d
00000040: 9e2c 9abe eadd 6cbe aa82 c8be f01f 02bf
00000050: 4426 12be 5b17 443e 8a48 89be 38b2 15be
00000060: e6ae bebe f46a a2bd 89f7 b13c b346 363e
00000070: 25c5 993e b2ac 513e 33fa 4c3e baad ccbd
00000080: 567d 0dbf a3bf 48bd b4b6 cebd 0474 43bd
00000090: 3d27 373c 5f70 373e 1bd5 0cbf 3285 55bb
000000a0: ff45 b9bd 6417 76bd 0bb7 16bf b21b f2bd
000000b0: 653f e7bd 3cf4 773e 3828 8fbd 70ab ebbc
000000c0: 3dd1 0fbd 78f3 a5be d92b 00bf e541 d93c
000000d0: 58e0 84bd 0d39 413e a5c6 163e 3b83 f2bd
000000e0: 78fe 18be e433 02be 89bc 613d 3369 e03e
000000f0: 67da 343e 51e9 953e 84a6 11be 2c2f a2be
00000100: a9a8 42bf c944 acbe 9b41 af3e a67e 23bf
00000110: 8814 a13e b472 903e 4c1d f43c 3a31 2f3e
00000120: 0259 2e3e 56a0 87bc 210a 2dbf 527a 983d
00000130: 2234 6cbd 2f10 f93d a1b2 09be 6cab 66be
00000140: ae3d aabc fe0f 75be 53bd 25ba d784 c2bd
00000150: fef9 293d e430 353e 07e7 ae3d c0dc 66bd
00000160: 3022 23be 14ae 9abd b0cc da3d 0084 573e
00000170: 8235 c23c 382a 32be 3b4a 3c3c 2384 f5bb
00000180: a40d bdbe 82a6 833e 9a36 8fbd 2ce0 10bf
00000190: 28ae 6f3e 64b3 2e3d 4183 493d e516 a4bb
000001a0: 928f 493c 980c 80be 4e6f e4be 86ab 89bd
000001b0: fa0a fe3d 16ff 5f3d 5ccd fa3d b298 5dbe
000001c0: 3239 123e 95d6 cdbd a24f b2bd bdf6 d7bd
000001d0: 0e47 c23d 18e8 d73d 9226 773e 8bdf 4abe
000001e0: 3625 573c 4f0d bfbe 7afe 103e 5365 c03e
000001f0: abfc 503d 6f65 f03d 4feb 0cbe 4c66 2dbd
00000200: 1b23 0a3c 3656 173c a532 aabe d7a6 b53d
00000210: 0fc6 b0bd 8d11 83be a673 903d 063b 5abe
00000220: e133 e6be 04b8 523e 500a 90bc 684f 2fbd
00000230: 37c4 91be 2e47 c8be ea16 35be da32 b03d
00000240: 2e2b 133e 94c4 7abe 9098 8b3d b1af ad3d
00000250: 669d 01bf 2feb 9cbe 49df eabd ed10 893d
00000260: b6c3 373e 3cd1 25bd 2533 7abc 05cf d1be
00000270: 4947 03bf 6433 ecbd 45a0 a63e 23dc 22bd
00000280: 4c27 d8be 328b 4a3e 4069 4f3c d199 adbe
00000290: 5287 ad3d 3d17 86be af35 0fbe 43d0 ac3e
000002a0: f5f0 a5be 06ac a7bd 9b56 a2be a5cf 443e
000002b0: 9319 20be cbcc ff3c 7830 6c3e 30d1 82be
000002c0: bded 39be 584b 893e 9e13 f6be 8e9f ddbe
000002d0: f7af 943e 4812 8b3e 5b9a 42be 96f6 38be
000002e0: 1455 4bbe 67fd 20bd c32f 0dbe 63e4 373d
000002f0: 3ee6 623e 5e7c 87bd f60b be3d 71a9 0dbf
00000300: a3bf bd3d 6179 51be 0cfe 0a3b 492f ff3c
00000310: 1ae7 1ebe 0c72 033e f541 7ebe 0676 cdbb
00000320: 6a5c 3f3d d341 babc 6fcb b73d 26f3 b7bd
00000330: 5fcb 06bf 6acd a33d 0a4f 24be b0fc 66be
00000340: c02f e63d a3d5 9e3d e183 f73b 26f8 edb8
00000350: 1ddd 13bc 29eb c0bd 5e46 12be da04 413e
00000360: 0713 8d3d 5d9f e63d c247 8bbe 9466 10be
00000370: 9ab0 a5bd 1314 a0bc 8914 1c3e fae6 0b3d
00000380: 899f 563d 207d b13d 3100 5cbe 96de 753d
00000390: 854a 8cbe 580f 3cbd 4a7b 093d 610b 7bbe
000003a0: 9379 93be 272d 8ebb 0bf2 d23d d7c9 90be
000003b0: 0d6a 1ebd 02d8 d6be 8339 c7be 995c 91bd
000003c0: 6177 883e 3a2c 113d b92c bf3c 843d 523e
000003d0: c544 71be 3870 30be 9e77 b2be 2440 10bd
000003e0: 3eee 313e fa3c 033e fb99 02be 5642 6cbe
000003f0: 382c c53d 8c11 cbbe 4237 5fbe e4fd 5cbc

sequential_1_1/dense_4_1/BiasAdd/ReadVariableOp:0 f4 [32]
0.18963262 -0.12759961 -0.019794013 0.20279457 -0.09984787 -0.019185718 0.22908063 -0.08041796
-0.1685686 0.3143682 0.1854465 -0.17110796 -0.13030086 -0.08450857 -0.06148187 -0.22010568
0.34959075 -0.02816024 0.1638032 0.25149098 0.0034723228 -0.060346518 -0.11599001 0.34871408
0.30046424 0.36871874 -0.09329793 0.01295079 -0.21467379 -0.07044564 -0.1738109 0.18198285
00000000: 0e2f 423e 79a9 02be 0e27 a2bc 61a9 4f3e
00000010: 0a7d ccbd 5e2b 9dbc 1d94 6a3e 2cb2 a4bd
00000020: 3f9d 2cbe def4 a03e b0e5 3d3e ed36 2fbe
00000030: 976d 05be d412 adbd 6ad4 7bbd 6263 61be
00000040: 8ffd b23e 4eb0 e6bc 07bc 273e 6dc3 803e
00000050: e98f 633b e92d 77bd 2c8c edbd a78a b23e
00000060: 73d6 993e b4c8 bc3e fc12 bfbd 8d2f 543c
00000070: 72d3 5bbe ce45 90bd 7cfb 31be b659 3a3e

sequential_1_1/dense_3_1/Cast/ReadVariableOp:0 f4 [12, 64]
0.1424481 -0.10535818 0.41468433 0.49666435 -0.11390013 0.045978718 -0.015187242 -0.005137372
-0.08512689 0.54577434 -0.03760474 -0.008896349 -0.09286266 0.05504973 -0.02814604 -0.052401423
-0.060441267 -0.12506045 0.016678408 -0.0112115955 0.60378593 -0.0303423 -0.05389522 -0.006245203
0.68586934 -0.19659376 -0.0590257 -0.07188369 -0.09292501 -0.058811028 0.0065907007 0.019873772
0.32678798 0.10149754 0.0018516068 -0.06703796 0.07732936 -0.004178159 0.0018356411 -0.33280966
0.17985873 -0.08902692 -0.047070112 0.053843156 0.092011936 0.040317096 -0.1039338 0.20534348
0.11805535 -0.2416955 -0.07494891 -0.3022525 0.19481635 -0.08047954 -0.07258849 -0.0017234039
-0.1089406 -0.17681414 0.08674476 -0.02425088 -0.04813807 0.061731737 -0.0050572315 0.39585507
0.055462394 -0.00592664 0.03117676 -0.0008288345 0.0042075 -0.00988803 0.108472414 -0.16686824
-0.05562292 0.0524417 0.1081493 -0.23439544 0.12816843 0.027847951 -0.0112874545 0.05022069
-0.06974021 -0.49609688 0.0037201068 -0.139393 0.030864228 0.006911501 0.05301751 -0.08990058
0.0071393577 -0.014629933 0.1340092 -0.050800994 0.072342545 0.022222301 -0.037692413 -0.01689016
-0.10155925 0.23054063 0.010819044 -0.11048279 0.25942114 -0.02949754 -0.051909927 -0.01706607
-0.040689252 -0.12107143 -0.32326123 0.05427424 -0.051886324 -0.0029680235 0.06934375 -0.05512713
0.1398454 -0.20945309 -0.3593184 -0.07383471 -0.12931505 -0.04376661 -0.36726877 0.0037186
0.23195471 -0.1220237 -0.18595383 0.030092847 0.019748626 0.01477649 0.00044869236 0.15176216
0.44449028 0.22949179 0.42322612 0.093391135 -0.34731293 0.4246156 -0.24691285 -0.38283488
-0.5452946 0.4988012 -0.37888294 0.029014649 -0.21438004 0.41489223 -0.22515461 -0.3678242
-0.55371577 -0.28244337 0.3790145 -0.06837841 0.25160533 0.16088012 -0.5495957 -0.09398671
-0.29620302 -0.39100334 -0.68342274 -0.1004929 -0.6579914 -0.34716895 -0.35705522 0.5258298
-0.40410388 -0.41798702 -0.38845402 -0.5654167 -0.64355564 0.62079877 -0.5229087 0.17527542
0.39850312 -0.36538878 -0.48700747 0.3909962 0.3879418 0.4518392 -0.32487717 0.43482122
0.40413123 -0.16462287 -0.2304636 0.40987054 0.53552365 -0.5690246 -0.019963343 0.41412666
-0.104495704 -0.24177182 -0.02688562 0.24939689 0.5380746 0.19509783 0.23255485 -0.1637125
0.3277281 0.3448172 0.46071756 0.2515658 -0.3402456 0.41305172 -0.28193507 -0.22887196
-0.5339711 0.34426764 -0.5234668 -0.039586514 -0.5637853 0.32512298 -0.17770937 0.19706872
-0.42936662 -0.58894193 0.13865174 0.09634767 0.16973782 0.10960575 -0.25244924 -0.17217658
-0.45258406 -0.38060308 -0.42151135 -0.3710345 -0.5432007 -0.13760328 -0.17051281 0.35649776
0.12580502 -0.13347156 -0.027073072 -0.43053392 -0.18035759 0.5181892 -0.53122 0.22156207
0.11696743 -0.5311045 -0.26560354 0.16156368 0.26348835 0.28887805 -0.23367219 0.34863108
0.3298054 0.3614569 -0.2173965 0.4511979 0.36033913 -0.32849285 -0.0030205334 0.22229044
-0.066477574 -0.20705834 -0.11133098 0.30901378 0.44059753 0.3131615 0.1653861 -0.35371745
00000000: eadd 113e 08c6 d7bd 8151 d43e ca4a fe3e
00000010: 7944 e9bd 2e54 3c3d e9d3 78bc 6657 a8bb
00000020: 0257 aebd deb7 0b3f 6e07 1abd fec1 11bc
00000030: c72e bebd d37b 613d 8692 e6bc e0a2 56bd
00000040: 4391 77bd d90f 00be 28a1 883c d7b0 37bc
00000050: b791 1a3f 6a90 f8bc 3cc1 5cbd 8fa4 ccbb
00000060: 2295 2f3f e04f 49be efc4 71bd c237 93bd
00000070: 784f bebd d5e3 70bd cef6 d73b 52ce a23c
00000080: c150 a73e f1dd cf3d 9db1 f23a 334b 89bd
00000090: db5e 9e3d f0e8 88bb e599 f03a 0766 aabe
000000a0: e32c 383e bf53 b6bd 97cc 40bd a48a 5c3d
000000b0: c170 bc3d 8a23 253d 3edb d4bd 9045 523e
000000c0: 01c7 f13d 067f 77be d07e 99bd d7c0 9abe
000000d0: f07d 473e 75d2 a4bd 46a9 94bd d7e3 e1ba
000000e0: 401c dfbd c40e 35be 3da7 b13d c8a9 c6bc
000000f0: 6d2c 45bd 6bda 7c3d 22b7 a5bb 84ad ca3e
00000100: 892c 633d 4234 c2bb 6866 ff3c 2446 59ba
00000110: 11df 893b 6701 22bc c926 de3d 82df 2abe
00000120: dcd4 63bd 1ccd 563d 617d dd3d 5c05 70be
00000130: 963e 033e 6321 e43c 04ef 38bc 36b4 4d3d
00000140: f5d3 8ebd 6900 febe 09cd 733b 0abd 0ebe
00000150: fad6 fc3c df79 e23b e328 593d cc1d b8bd
00000160: 46f1 e93b 63b2 6fbc b539 093e b414 50bd
00000170: 5428 943d 8b0b b63c 5c63 1abd 3c5d 8abc
00000180: 4cfe cfbd d812 6c3e 5c42 313c cd44 e2bd
00000190: d9d2 843e d3a4 f1bc 819f 54bd 25ce 8bbc
000001a0: c6a9 26bd 4cf4 f7bd 7f82 a5be aa4e 5e3d
000001b0: c186 54bd 2c83 42bb 1904 8e3d fccc 61bd
000001c0: a233 0f3e df7a 56be 95f8 b7be a736 97bd
000001d0: 2a6b 04be 9e44 33bd a70a bcbe c1b3 733b
000001e0: 8985 6d3e 90e7 f9bd ae6a 3ebe 4685 f63c
000001f0: dfc7 a13c 1719 723c 783e eb39 8a67 1b3e
00000200: 3b94 e33e e5ff 6a3e 18b1 d83e da43 bf3d
00000210: 00d3 b1be 3767 d93e b9d6 7cbe ef02 c4be
00000220: 6d98 0bbf df62 ff3e f2fc c1be 21b0 ed3c
00000230: 7186 5bbe c16c d43e ee8e 66be 7453 bcbe
00000240: 51c0 0dbf 6b9c 90be 300e c23e fb09 8cbd
00000250: 6ad2 803e c2bd 243e 4eb2 0cbf 1b7c c0bd
00000260: eca7 97be 9731 c8be cbf4 2ebf 39cf cdbd
00000270: 2072 28bf 21c0 b1be f1cf b6be c89c 063f
00000280: b4e6 cebe 6502 d6be 72e3 c6be 26bf 10bf
00000290: 10c0 24bf abec 1e3f 58dd 05bf 667b 333e
000002a0: 9a08 cc3e 3d14 bbbe 0b59 f9be a730 c83e
000002b0: 4fa0 c63e 7857 e73e 4d56 a6be e3a0 de3e
000002c0: 4aea ce3e e692 28be a6fe 6bbe 8dda d13e
000002d0: 1418 093f 99ab 11bf 2a8a a3bc 6908 d43e
000002e0: d801 d6bd 0893 77be 3b3f dcbc e661 7f3e
000002f0: 42bf 093f bac7 473e dc22 6e3e 40a4 27be
00000300: facb a73e e18b b03e 2ce3 eb3e 3ccd 803e
00000310: ac34 aebe 847b d33e cb59 90be 695d 6abe
00000320: 54b2 08bf d943 b03e ec01 06bf 7825 22bd
00000330: 3c54 10bf 8576 a63e 72f9 35be 62cc 493e
00000340: f1d5 dbbe e6c4 16bf b9fa 0d3e ed51 c53d
00000350: c0cf 2d3e fb78 e03d 0741 81be 0f4f 30be
00000360: 19b9 e7be 68de c2be 56d0 d7be 3cf8 bdbe
00000370: 330f 0bbf e0e7 0cbe e99a 2ebe e086 b63e
00000380: 08d3 003e c5ac 08be 59c8 ddbc f16e dcbe
00000390: a9af 38be 0ca8 043f 09fe 07bf 2be1 623e
000003a0: 9f8c ef3d 77f6 07bf 30fd 87be f370 253e
000003b0: f2e7 863e d3e7 933e c347 6fbe c67f b23e
000003c0: 41dc a83e e110 b93e 309d 5ebe 6903 e73e
000003d0: 5f7e b83e 3730 a8be 24f4 45bb 1ba0 633e
000003e0: 6525 88bd 1a07 54be 7f01 e4bd 0e37 9e3e
000003f0: 0096 e13e b456 a03e f95a 293e 741a b5be

sequential_1_1/dense_3_1/BiasAdd/ReadVariableOp:0 f4 [64]
-0.18555884 0.15849954 -0.2146683 -0.17376819 0.10805829 -0.46853617 0.14536844 0.064254
0.07725326 -0.23318146 0.2364868 0.19366653 0.10979852 -0.24212572 0.016072229 -0.22170201
0.16747782 -0.06531665 -0.49197742 -0.05740223 -0.2102228 0.25785717 0.072150834 -0.1729542
-0.18970104 -0.051745925 0.05952436 0.20133917 0.016864073 0.07607176 0.15044264 -0.30846405
-0.12595785 0.017369548 0.021966372 0.09519714 0.13281195 -0.13111396 0.05223514 -0.47878748
0.01031635 0.23310845 0.12343302 -0.05910931 0.17401503 -0.11702184 -0.010139525 -0.3576315
-0.18561073 -0.23537844 -0.17157792 -0.27307498 -0.17289414 0.04298952 -0.12895551 -0.3404471
0.14148252 -0.06517417 -0.15900344 0.2067327 0.17773877 0.015019482 -0.25602195 -0.12553233
00000000: 2303 3ebe b44d 223e 02d2 5bbe 4af0 31be
00000010: aa4d dd3d f9e3 efbe 77db 143e 9a97 833d
00000020: f536 9e3d 1fc7 6ebe 9829 723e 8550 463e
00000030: 0cde e03d ceef 77be e8a9 833c da05 63be
00000040: 4e7f 2b3e bcc4 85bd 77e4 fbbe 9a1e 6bbd
00000050: a544 57be db05 843e d1c3 933d e81a 31be
00000060: fd40 42be 89f3 53bd d1cf 733d db2b 4e3e
00000070: 8626 8a3c 83cb 9b3d a30d 1a3e 00ef 9dbe
00000080: 18fb 00be 954a 8e3c d2f2 b33c b8f6 c23d
00000090: dbff 073e bd42 06be 84f4 553d a223 f5be
000000a0: e805 293c fbb3 6e3e 74ca fc3d 9b1c 72bd
000000b0: ff30 323e 25a9 efbd 4020 26bc 7a1b b7be
000000c0: bd10 3ebe 0c07 71be 1fb2 2fbe 7cd0 8bbe
000000d0: 290b 31be c715 303d ea0c 04be 154f aebe
000000e0: cbe0 103e 097a 85bd ccd1 22be bdb1 533e
000000f0: 2701 363e 4614 763c 4f15 83be 8c8b 00be
